reference/open_wake_word_web/models/alexa_v0.1.fake.onnx (onnx, 350279 bytes, 9 tensors)

1.weight f4 [32, 2688]
000000 a1 fc a4 38 db 4b 5b 3c a7 12 f2 3b 57 03 67 bb
       7.867185e-05 0.013384785 0.0073874774 -0.0035249793
000010 3c 17 25 3c c0 1d 75 bc fe 83 6d 3c 50 eb 55 bc
       0.01007634 -0.014960706 0.014496801 -0.013056591
000020 9f bf 7d bc 32 72 1e bc c1 7c 10 3c 19 1f 9f bc
       -0.015487581 -0.009670781 0.008818806 -0.019424008
000030 54 d7 72 3c 31 83 ee 3b db ab 2b 3c b7 30 9b 3b
       0.014821846 0.007278823 0.010477985 0.004736032
000040 2c 70 26 3c ae 56 8d 3c 50 05 60 bb 4c 8f 8f 3a
       0.01015858 0.017253246 -0.0034182854 0.001095274
000050 23 b9 ac 3c 36 5f 3b 3b 04 54 9a 3b 45 95 80 bc
       0.021084374 0.0028590686 0.0047097225 -0.015696177
000060 99 03 ff bc d7 9b 09 3c 15 b4 49 3c 39 a7 40 bb
       -0.031129645 0.0083989715 0.012311001 -0.0029396547
000070 81 2d ac ba fe 08 7a bc 28 a8 83 3c a0 36 68 3c
       -0.001313612 -0.015260933 0.016071394 0.01417318
000080 2d b5 b0 3a c3 b4 6d 3b ef 71 b6 bc 90 7c ba 3b
       0.0013481729 0.0036271072 -0.022271125 0.0056911185
000090 6e d2 fe b9 fa 52 b8 3b 24 8f f5 3b ea 4a b1 ba
       -0.00048603438 0.005625126 0.0074938703 -0.0013526354
0000a0 7f 11 0e 3b 12 3c 2a bc 6d 87 5f bc bc cc f0 ba
       0.002167791 -0.010390298 -0.013643128 -0.0018371562
0000b0 52 24 81 3c 8a f4 84 bb 94 aa aa 3b f9 9f cb 3b
       0.01576439 -0.0040574716 0.005208323 0.0062141386
0000c0 a9 7d a9 3c fc 01 97 3c 29 2c fb 39 5f e9 42 3c
       0.020689802 0.018433563 0.00047907353 0.01189646
0000d0 48 60 04 3d 1c 40 3d bc 5a 62 9a bc af a2 5f 3c
       0.032318383 -0.011550929 -0.018845726 0.013649627
0000e0 87 70 3d 3c d3 c1 88 3c 6f f2 1e 3b 7a 28 ce bb
       0.011562473 0.016693985 0.0024253388 -0.0062914463
0000f0 48 e9 c1 3c 2f 98 43 3c 09 42 18 bb 80 ef 64 3b
       0.023670807 0.011938139 -0.002323272 0.0034932792
000100 a2 c8 a8 3c 66 9f 4c 3c 23 79 21 bc 4c e0 2c 3c
       0.020603482 0.012489175 -0.009855541 0.010551523
000110 0b 9c 76 3b 9a aa 4d 3c 0b 55 05 bb a0 b1 80 3c
       0.003762963 0.012552882 -0.002034488 0.015709698
000120 d6 a1 b6 3c c1 06 38 bc 06 e2 77 3c fc 68 00 3c
       0.022293966 -0.011232079 0.015129572 0.00783753
000130 1f 3f 8b 3c 3c 5e d4 bc 2d a3 d6 bb fe 25 43 3c
       0.016997872 -0.02592384 -0.006550214 0.0119109135
000140 1b b6 21 3b 3d c8 a7 bc bb e1 53 bc 09 bd 51 bc
       0.0024675194 -0.020481223 -0.012932236 -0.012801417
000150 56 da 96 3c d4 b0 06 bb 06 0e aa bc 12 b6 f9 3b
       0.018414658 -0.0020552175 -0.02075864 0.0076205814
000160 6a 05 6e 3b 5e c9 dc bb 65 b9 8d 3c d7 b7 4f 3c
       0.0036319145 -0.006737872 0.017300317 0.012678108
000170 d7 f5 b1 3b 1e c7 a2 bc 2f 78 32 bb 20 17 b3 3c
       0.0054309177 -0.019870337 -0.002723228 0.021861613
000180 ff 12 41 3c 7d de ad 3c 22 35 0f 3c 01 50 ef 3b
       0.011784314 0.021224255 0.008740695 0.0073032384
000190 41 d3 7c bc df 93 22 bc e0 95 b7 3a 4f ac 6c 3b
       -0.015431226 -0.0099229505 0.0014006458 0.0036113446
0001a0 59 b2 47 bb be a0 0d 3c 27 4a cb bb f5 9d 48 bc
       -0.0030471294 0.008644281 -0.006203908 -0.012244691
0001b0 f8 1a d5 3b 02 d2 52 3c b2 d8 e4 3b 9f 95 82 3b
       0.006503459 0.012867453 0.00698384 0.0039851214
0001c0 01 4e 41 bd b0 2d 56 3c be 99 89 3b af 20 2c 3c
       -0.04719353 0.013072416 0.0041992357 0.010505839
0001d0 7d 3a 59 bc 6a b9 f4 bb 3f 03 96 bb ce 0a a6 3c
       -0.013258574 -0.007468392 -0.0045780237 0.020268824
0001e0 81 60 55 bc fa 47 3e 3b cd 6e 4a bb 2f 4d 95 bc
       -0.013023497 0.00290346 -0.0030888796 -0.01822528
0001f0 e3 74 e2 3c 79 05 f4 bb 89 72 95 3c d1 ba 79 3c
       0.027643627 -0.0074469415 0.018243091 0.015242294
000200 09 d1 b8 ba 63 0a b1 3c cb 9a 8a bc f2 aa 89 3b
       -0.0014100383 0.021611398 -0.016919514 0.0042012865
000210 bc 92 a4 3c 81 48 be 3b 51 64 87 3c 4a 42 d0 bb
       0.0200895 0.005806983 0.016527327 -0.0063555585
000220 91 c8 9e bc e7 9a 86 bb 27 b7 b5 3b 99 cb 06 3b
       -0.019382747 -0.0041078213 0.005545515 0.002056813
000230 f6 9d f5 bb 22 ce fc 3a aa 84 4c bc 4a 72 a4 bc
       -0.007495637 0.0019287507 -0.012482801 -0.020074029
000240 57 83 58 bc 65 70 c4 bb 8b 14 3e 3b c7 3c 72 3b
       -0.013214908 -0.005994844 0.0029003944 0.0036962496
000250 5d 3a 0f 3d 01 5d 8c ba 94 16 3a 3c 8f ec 9d 3c
       0.03496777 -0.001070887 0.011357922 0.019277839
000260 c3 0e 0c 3c 4c 70 ea bb f4 88 27 3c 46 88 22 3c
       0.008548441 -0.0071545 0.010225523 0.009920185
000270 2d ca 95 3b a7 01 25 3b 27 00 41 bb 47 be aa bc
       0.0045712204 0.0025177987 -0.0029449554 -0.020842684
000280 5e 17 21 3c 9c 82 47 3c 0e 8d ef 3c 39 41 fc 3b
       0.009832231 0.012177136 0.029242065 0.007698205
000290 08 8f e3 ba 13 c5 c6 bc a6 17 56 3c 2d 5a 87 bc
       -0.0017361352 -0.024263894 0.013067162 -0.016522491
0002a0 1c 64 4e bc 6b d2 77 3c a9 c8 ec bb 48 8d f2 3c
       -0.01259711 0.015125851 -0.007226069 0.029608384
0002b0 7a e1 ff 3a d5 a2 bf 3b 4b 66 86 3b f0 b8 20 3b
       0.0019522153 0.0058482685 0.0041015497 0.0024524294
0002c0 47 d2 6d bb b9 ad 10 bc 96 fb 02 3c 7e 43 88 3c
       -0.0036288665 -0.008830481 0.007994553 0.016633745
0002d0 d2 7e 6b bc b6 e5 37 bc e9 d0 f8 3b 46 ff aa 3b
       -0.014373498 -0.011224201 0.0075932634 0.0052184192
0002e0 f4 bd 34 3c a2 0b 42 3c 54 5e 22 3d 78 d8 1c 3c
       0.0110316165 0.011843594 0.03964074 0.009573095
0002f0 3f e5 02 3c 56 8e b8 bc 8e 87 fa 3b 6e 0c 8f bb
       0.007989227 -0.022528809 0.007645554 -0.0043654954
000300 26 b9 74 bc f4 c9 84 3c 0f dc c1 3b a3 a5 78 bc
       -0.014936721 0.01620958 0.0059161256 -0.01517621
000310 46 13 2d 3b b4 b8 8e b9 ca b0 8b bc f7 5d 61 bb
       0.0026409193 -0.00027221965 -0.017052073 -0.0034388283
000320 89 01 41 3c 84 c2 a1 3a 89 07 df 3b 43 a0 78 3c
       0.011780151 0.0012341295 0.006806318 0.015174928
000330 10 df 9c 3c 24 0c 82 bc ef 2d d4 bb 73 e3 ba 3c
       0.019149333 -0.01587493 -0.0064752023 0.022813534
000340 9b f7 0d 3c d3 64 45 3b 64 ff 5a ba da ee 4d 3c
       0.008664991 0.003011991 -0.0008354096 0.012569154
000350 01 e6 70 3c e0 c0 97 3c a5 2d 47 3c 57 75 f6 bc
       0.014703275 0.018524587 0.012156879 -0.030085249
000360 24 04 06 bc c7 d3 8c bc 01 f7 09 3c 65 e4 1d 3b
       -0.008179698 -0.017190827 0.008420707 0.0024092433
000370 2b 4e 13 ba b5 f0 a9 bc dd 58 0a bc e9 20 67 bc
       -0.0005619253 -0.02074466 -0.008444038 -0.0141069675
000380 e5 1a 76 3c 5d fe 3b bc f1 c2 9e 3b 6d 8d 50 3b
       0.015021061 -0.011474219 0.004845016 0.0031822578
000390 f2 53 e8 bb 84 6e f4 bb 61 cb 8b 3b a9 33 8a 3c
       -0.007090085 -0.0074594636 0.004266188 0.016870337
0003a0 a4 8d e4 bb e1 a7 18 bb 62 a1 44 b9 97 69 0d 3b
       -0.0069748927 -0.0023293423 -0.00018752136 0.002157783
0003b0 c4 1e 21 bc 97 16 be 39 7c 29 00 bb c3 01 97 3b
       -0.009833995 0.00036256455 -0.0019555977 0.0046083643
0003c0 10 ce 81 bb 1e 56 b6 3c 08 ad c7 ba 17 db 78 3c
       -0.003961332 0.02225786 -0.0015234062 0.015188954
0003d0 56 3c 04 3c 14 89 cc bc 1a 26 bc bc 74 73 1d 3c
       0.008071026 -0.024967708 -0.022967387 0.009610046
0003e0 84 06 27 3c a3 00 6e bc b2 c6 8b 3c f5 17 a0 bc
       0.010194425 -0.014526519 0.017062519 -0.019542674
0003f0 7d 30 b2 3c c2 52 99 3c c5 95 02 3c a9 9d e0 bc
       0.021751637 0.01871622 0.007970278 -0.027418928

1.bias f4 [32]
000000 b1 3b a3 3c 1f f2 dc 3a 04 c7 a2 bc f4 29 1d 3c
       0.019925924 0.0016856826 -0.019870289 0.009592522
000010 6f 43 83 3a 8b 9f b0 3b 55 48 b3 3b 65 9a 77 bb
       0.0010014604 0.0053901128 0.005471269 -0.0037781235
000020 f1 41 90 3b 5b 18 71 bb 98 86 bb bb 68 c4 67 bc
       0.004402392 -0.0036788199 -0.005722832 -0.014145948
000030 3b 90 45 3c 9d 97 a5 bc b8 c6 72 bc 2d 86 88 3c
       0.012058313 -0.020213896 -0.014817886 0.016665542
000040 82 8d 43 3c 1c 20 54 bc b9 8e 8e 3c 6c 70 a3 bb
       0.011935594 -0.012947109 0.01740204 -0.004987767
000050 c4 8f 5b 3c 23 d8 8a bc 0d 8c 8f 3c e9 a4 96 3c
       0.013400976 -0.016948765 0.017522836 0.018389182
000060 1a c7 5b bc ee 4a 1b 3c 71 84 9a 3c e0 aa c4 bc
       -0.013414169 0.009478314 0.018861981 -0.02400726
000070 7e 76 9c bc 3a a5 b7 3b 20 93 98 bc 29 88 83 ba
       -0.01909947 0.0056044133 -0.018624842 -0.0010035086

2.weight f4 [32]
000000 1c fc 7b 3f 91 7b 7c 3f 6c 76 7e 3f 0c db 86 3f
       0.98431563 0.9862605 0.9939945 1.0535598
000010 6f 76 7e 3f 6d 76 7e 3f a9 e3 83 3f cd 33 7b 3f
       0.99399465 0.99399453 1.0303851 0.98125917
000020 b4 75 7e 3f 6e 76 7e 3f 8a 83 85 3f 67 76 7e 3f
       0.9939835 0.9939946 1.0430768 0.9939942
000030 45 95 82 3f 19 01 82 3f 6d 76 7e 3f 74 63 80 3f
       1.0201803 1.0156585 0.99399453 1.0030351
000040 39 bc 7b 3f 75 55 6f 3f fa 2c 74 3f 1c 9c 7f 3f
       0.9833408 0.9348977 0.9538113 0.9984758
000050 d4 c0 84 3f d1 7e 75 3f e8 44 81 3f bc 33 7c 3f
       1.0371346 0.9589663 1.0099154 0.9851644
000060 9d 77 7f 3f c4 43 7d 3f 08 eb 82 3f 68 76 7e 3f
       0.9979189 0.9893153 1.0227976 0.99399424
000070 bd 9d 7e 3f 6d 76 7e 3f ee ae 8a 3f d9 ba 7d 3f
       0.9945944 0.99399453 1.0834634 0.9911323

2.bias f4 [32]
000000 d4 2b f4 3a f0 44 13 bd c7 c9 c4 bb 4e bb 86 bc
       0.0018628784 -0.035954416 -0.006005499 -0.016446736
000010 53 c9 c4 bb b0 c9 c4 bb 1d 7c 48 3c 64 d5 ce bc
       -0.006005445 -0.0060054883 0.012236622 -0.025248237
000020 cb 3d ca bb 9c c9 c4 bb eb 26 a4 bb f5 a4 c4 bb
       -0.006171917 -0.006005479 -0.005009522 -0.0060011097
000030 36 55 4d bc f1 55 34 ba b2 c7 c4 bb 6a a7 9d bb
       -0.012532523 -0.00068792613 -0.006005251 -0.004811217
000040 8f 8c 24 bc 3a 98 bf bc d7 bc 28 bd 32 c3 4f bc
       -0.010043277 -0.023388017 -0.041195717 -0.0126808155
000050 44 5a f4 bb 5a 0c f4 bc e1 1e 97 bc b2 5f ba bc
       -0.0074570496 -0.029791046 -0.018447341 -0.02275071
000060 12 c6 aa bc ac 0c c6 bb 8b 67 b8 bc 98 e8 c4 bb
       -0.0208464 -0.006043991 -0.02251031 -0.0060091726
000070 82 ae c1 ba 9c c9 c4 bb 02 c4 b0 bc a3 51 81 bc
       -0.0014776739 -0.006005479 -0.021577839 -0.015785998

4.weight f4 [32, 32]
000000 2f 40 1f be ea 1a f5 3d f4 4a 30 3e a4 4d e2 bb
       -0.15551828 0.11968024 0.17216092 -0.006906228
000010 64 a1 83 bd 2f 93 f0 3d c1 d8 a5 bd a8 a8 80 3c
       -0.06427267 0.11746823 -0.08097983 0.015705422
000020 66 a8 25 bd 7b 59 22 3e 3b 1f ce 3d 71 82 02 bd
       -0.0404438 0.15854447 0.100645505 -0.03186268
000030 e5 af 62 bd c4 fb 6d bd a0 65 e1 bd e2 a5 db bc
       -0.055343527 -0.05810143 -0.110057116 -0.026812498
000040 2e 31 9c bd e5 65 73 bd 89 da 0e be 1c 74 95 3d
       -0.07626568 -0.059423346 -0.13950552 0.07297537
000050 10 06 29 3c 15 59 ca bd 72 54 3d bd 74 7c f9 bb
       0.010316387 -0.09880272 -0.04622311 -0.007613713
000060 85 e5 92 3d 90 13 0e be 61 5a 3c bd 30 70 2c 3d
       0.071726836 -0.1387465 -0.04598463 0.042099178
000070 23 6e d7 3d b6 02 25 bd 05 0d f1 bd 3c 0b 3e 3e
       0.10519054 -0.04028579 -0.117700614 0.18558973
000080 8b bc 77 3d e4 69 e7 3c f7 7d 44 bd 29 4f cc bc
       0.060482543 0.028248735 -0.047971692 -0.02494009
000090 30 fc c2 3d a5 fb b2 3c 2d ad 8d bd 09 fc 14 3d
       0.09520757 0.02184851 -0.06917796 0.036373172
0000a0 9c a9 0b bd d2 e1 69 bc 55 c0 8a bd b7 a2 ab bd
       -0.0340973 -0.014275031 -0.06774966 -0.08380645
0000b0 0b 7d d3 3d 71 be ee bd a1 95 d2 bc 74 a3 00 be
       0.103265844 -0.116574176 -0.025706114 -0.12562352
0000c0 32 c9 4c 3e b1 35 ca bd 0b 1a 91 bd c0 94 7a bd
       0.19998625 -0.09873522 -0.070850454 -0.061177015
0000d0 69 f0 2c 3e d6 bd e6 3c f9 70 b5 bd bb ee c6 bb
       0.16888584 0.028166693 -0.088594384 -0.0060709394
0000e0 8c 9a dd 3c f7 5f ce 3d d9 2e ea 3d 44 81 9a bd
       0.027051233 0.100768976 0.11434717 -0.07544187
0000f0 f6 99 a1 3c 55 7c 4b 3c 44 ae 99 3c 8e 16 83 3d
       0.019726735 0.01241978 0.018759854 0.06400786
000100 e0 a8 3b bd 6a 9f 79 3d 9a 45 94 3d 55 5c 9e 3b
       -0.04581535 0.060943045 0.07239838 0.004832784
000110 b7 ea db bd 7c 62 d7 3d 5c 3f d9 bd bc 13 de 3c
       -0.10738128 0.10516831 -0.10607788 0.02710902
000120 15 56 80 bd 0c 6e aa bd 22 aa ac bd 1a 32 32 3e
       -0.06266419 -0.08321771 -0.08430888 0.17401925
000130 8e 3b f5 bd b3 29 23 be 85 19 f4 3a 35 10 1b 3e
       -0.1197425 -0.15933876 0.0018623328 0.15142901
000140 13 1b c4 bc 26 50 b4 3d bf fa d7 bd 7b 0d 81 bc
       -0.023938691 0.088043496 -0.10545873 -0.015753498
000150 fe 78 ed 3d af 55 67 bd 41 f6 0d 3e 46 a6 0a be
       0.11595343 -0.0564782 0.1386347 -0.13539991
000160 a7 98 21 3e ea 2a b0 3c 1e a0 94 bc 48 fd 1b be
       0.15780888 0.021504838 -0.018142756 -0.15233338
000170 18 1a 3a 3e 2a 6e 31 3e b6 2d a4 3c f6 27 a2 3b
       0.18174016 0.1732718 0.020041328 0.0049486114
000180 62 14 b5 3d c7 73 1f be 8d ea da 3d 47 23 1b be
       0.08841778 -0.1557151 0.10689268 -0.15150176
000190 aa 74 1b 3e dd 8b 27 be ab 82 23 be ed 55 24 bd
       0.15181223 -0.16361947 -0.15967815 -0.040121008
0001a0 9e 2a 11 be 1b 28 a6 bd 94 57 28 3d 73 a5 39 3e
       -0.14176413 -0.08113118 0.041099146 0.1812952
0001b0 60 f9 c7 3d bb c6 c4 bc 02 ca e0 3d 2a 59 a0 3d
       0.097643614 -0.024020543 0.1097603 0.07829507
0001c0 af 37 b4 bc 93 4e ed bb a0 c7 47 bd 83 eb 08 bd
       -0.021999208 -0.007242033 -0.04877436 -0.033427726
0001d0 ff 0b 1f 3d 99 4a 2a be 7c 0c 71 bc 52 ad 10 bc
       0.0388298 -0.16630019 -0.014712449 -0.008830385
0001e0 ba 17 3b 3e 9e 75 e6 3d 28 91 d7 bc 8a 79 e1 3c
       0.1827077 0.112529024 -0.026314333 0.027523775
0001f0 fd 25 1d be 84 82 ee bd 05 c5 5c bd 94 84 33 3e
       -0.15346523 -0.11645988 -0.05389883 0.17531043
000200 50 98 f8 3d dd 87 01 be fa 67 16 3e e5 5a 0c 3e
       0.12138426 -0.12649484 0.14688101 0.13706549
000210 b9 e0 28 3e 54 34 9f bb d5 5a eb 3d 88 9a 4c bd
       0.16491975 -0.004858533 0.11491934 -0.04995206
000220 13 06 b9 3c 46 c1 b7 bd 64 38 01 3e 3b 7b a1 bd
       0.022585904 -0.08972411 0.12619168 -0.078848325
000230 95 f8 38 be 94 03 fb 3a 50 e2 1b be 27 ce 10 be
       -0.18063577 0.0019150847 -0.1522305 -0.14141141
000240 d3 41 2a be 29 fe cb bb cf 29 bd bd dd 02 48 3d
       -0.16626672 -0.0062253666 -0.0923649 0.048830856
000250 a0 41 b0 3d dd 2e 97 3d 4c 51 d7 bd 2e 6f d1 3a
       0.08606267 0.07381985 -0.10513553 0.0015978569
000260 81 d5 06 be 78 72 b7 3d 3d 4b 4a 3d 47 7e 28 be
       -0.13167383 0.0895738 0.04938816 -0.16454421
000270 f0 ad f7 3d c0 44 1b 3d 20 56 2f 3e fd ec b1 bd
       0.12093723 0.037907362 0.17122698 -0.0868778
000280 7e b4 a8 bd 44 3e 64 bd c2 ed 49 3c 92 09 8b bd
       -0.08237551 -0.055723444 0.012324752 -0.06788935
000290 9b 5a 06 3d e0 94 05 be 86 a6 42 3e b2 12 38 be
       0.03280125 -0.13045073 0.19008836 -0.17975882
0002a0 e7 f4 93 bc b5 a7 a9 3d be 5b 4c bd f8 67 b3 3d
       -0.018061114 0.08283941 -0.04989218 0.08760065
0002b0 9c da 23 be 1e 0a b7 bd 5e d5 ef 3d 9f d4 00 3e
       -0.16001362 -0.089374766 0.117106184 0.12581109
0002c0 90 ea 06 be 9f ce ea bd a3 b5 6c 3c 06 37 2e bd
       -0.13175416 -0.11465191 0.014447602 -0.042532943
0002d0 6d 71 c3 3b e3 de 20 3e 19 a7 49 3d bb c5 69 bd
       0.005964449 0.15710025 0.049231622 -0.057073336
0002e0 8a 98 b6 bd 06 57 c5 3c d6 e7 10 3e 5e 84 1f 3e
       -0.08915813 0.024089348 0.14150938 0.15577838
0002f0 8a 4e 29 bd 8e 9d 04 3d 1b 05 64 3e 9e a8 2d be
       -0.041334666 0.03237682 0.22267573 -0.16958854
000300 7c 1e 04 bd 4d a7 06 3e 6a ea 63 3d 3c b4 6a bd
       -0.032255635 0.13149758 0.055643477 -0.05730079
000310 2c e4 0e be 48 2f 14 3d a8 48 33 3d c7 25 75 bd
       -0.13954228 0.036177903 0.043770462 -0.05985048
000320 52 e5 0f be 84 f5 15 3e be 4e ec 3d 7a 56 03 3d
       -0.14052323 0.14644438 0.115384564 0.032064892
000330 c8 89 1e bd db a5 cf 3d 67 07 18 be ff 06 97 3d
       -0.038705617 0.10139056 -0.14846574 0.07374381
000340 8e 89 9d bc e0 de a0 bb 94 f6 05 be 14 d2 2d 3d
       -0.01923063 -0.0049093813 -0.13082343 0.042436674
000350 14 6a bf 3d 2f 85 1f 3e bc 75 18 3d 59 b1 00 be
       0.09346405 0.1557815 0.037221655 -0.12567653
000360 cd 34 06 be f5 ca 1f 3d e6 ed e5 bd db 06 fe bd
       -0.1310608 0.039011914 -0.11227016 -0.12403651
000370 36 b5 87 3d 28 60 b0 bd ef eb 17 3d b7 e3 ae bd
       0.0662636 -0.0861209 0.03709024 -0.08539527
000380 b0 2f 25 3e 2c 02 1b be 83 61 a7 bc 6e 76 96 3d
       0.16131473 -0.15137547 -0.02043224 0.073468074
000390 ba 02 14 3e ec f6 e1 3c 57 e5 f8 3d 47 c9 26 be
       0.14454165 0.027583562 0.12153118 -0.16287719
0003a0 28 e8 10 3e 5d bf 22 3c 5c 6b 78 3b e7 13 97 bb
       0.1415106 0.00993332 0.0037905788 -0.004610527
0003b0 c2 6a be 3c 09 26 2a be 97 12 fb 3d 71 66 17 be
       0.023244265 -0.16616072 0.12259405 -0.14785172
0003c0 62 da 10 3d b6 03 e3 bc eb 37 e1 bd 4b ed 1a 3e
       0.035364516 -0.02771173 -0.10996994 0.15129583
0003d0 27 87 5a 3d 95 07 80 bc c3 89 74 bd 1e 4f 31 bd
       0.053351548 -0.015628615 -0.059701692 -0.043288343
0003e0 29 2b 21 be 15 df 2d be 06 15 01 bd 50 89 0a 3e
       -0.1573912 -0.1697963 -0.03151419 0.13528943
0003f0 30 9b 35 3e 51 c4 77 bd 26 30 79 3d f8 88 29 3e
       0.1773498 -0.060489956 0.060836934 0.16556156

4.bias f4 [32]
000000 f5 74 a9 3c d5 61 05 3e fc af 59 3d b9 1c c2 bc
       0.020685652 0.13025601 0.053146347 -0.023695337
000010 59 34 1f 3e 77 b4 3d 3e 0f e2 ec bd 66 60 13 3e
       0.15547313 0.18525873 -0.11566555 0.14392242
000020 11 61 9f bd 46 29 a1 3c d1 b2 3f 3d 17 f8 1f 3e
       -0.07782186 0.019673001 0.046801392 0.15621983
000030 d7 9b ee bd 3e 73 8b 3d 7e 12 f9 bd 9c 48 3d bd
       -0.11650818 0.0680909 -0.1216173 -0.046211824
000040 0d ab 13 3d 2a ab c2 bc 0f 35 d6 3d ef 9f 51 bd
       0.0360518 -0.023763258 0.10459339 -0.051177915
000050 0c ae eb 3d e7 da 24 be c3 53 37 be 76 c9 ab 3b
       0.11507806 -0.1609913 -0.17903046 0.005242522
000060 de eb 93 3c 01 71 ce 3c 17 24 2b bd e6 6d 9a bc
       0.018056806 0.025200369 -0.041782465 -0.018851232
000070 49 54 f4 bc 25 b7 09 3e 2e e4 c3 bd 1f 0b 04 bb
       -0.029825347 0.1344877 -0.09565006 -0.002014823

5.weight f4 [32]
000000 20 d9 80 3f 2a 86 93 3f 23 be 88 3f 64 cd 93 3f
       1.0066261 1.1525319 1.0683025 1.1547055
000010 ef 88 8f 3f 50 1e 81 3f 8a 4a 96 3f 5b fd 79 3f
       1.1213664 1.0087376 1.1741498 0.97652215
000020 40 f6 8b 3f 69 ab 99 3f 27 1b 8f 3f 7f 03 92 3f
       1.0934525 1.2005435 1.1180161 1.1407317
000030 19 ac 8b 3f 28 77 7e 3f 6e 76 7e 3f 20 f2 80 3f
       1.0911895 0.9940057 0.9939946 1.0073891
000040 d6 50 84 3f 94 fb 8f 3f 1c 64 80 3f 11 80 86 3f
       1.0337169 1.124865 1.0030551 1.0507833
000050 16 2a 82 3f 29 c5 92 3f bd 7a 7f 3f 13 3b 96 3f
       1.0169094 1.1466419 0.9979666 1.1736778
000060 91 79 7f 3f 86 76 7e 3f 08 30 7c 3f 8b ab 8f 3f
       0.9979487 0.993996 0.9851079 1.1224226
000070 dc 62 84 3f a5 35 8f 3f e5 9c 79 3f a1 f8 81 3f
       1.034267 1.1188246 0.9750503 1.0154

5.bias f4 [32]
000000 f2 64 13 3c 65 4f e5 3d 5f a7 ea 3d f3 44 f1 3d
       0.008996235 0.11196784 0.11457705 0.11780729
000010 d6 4a b7 3d 26 c2 d2 bb 90 23 1b 3e 10 3d b1 bc
       0.08949821 -0.0064318357 0.15150285 -0.021635562
000020 eb ec bd 3c 64 9f 1b 3e 87 94 d0 3d 60 c4 f0 3d
       0.02318426 0.15197521 0.10184579 0.117562056
000030 e1 46 c9 3d 99 5a c3 bb a7 c9 c4 bb 74 3b 7d 3b
       0.09827972 -0.005961728 -0.006005484 0.0038640173
000040 74 6a 83 3d 56 8a 32 3d 6e 17 1a bb bc 47 15 3d
       0.06416789 0.04358896 -0.00235125 0.036445364
000050 e7 d3 ed 3c 2c 3d f0 3d 62 e4 92 ba d5 f6 ef 3d
       0.029031707 0.117304176 -0.0011206979 0.11717001
000060 cd 88 21 b7 12 7c c4 bb ab 83 84 bc 7a c8 c6 3d
       -9.628199e-06 -0.0059962356 -0.016176065 0.097062066
000070 1d 6d 7d 3d 43 ae f8 3d 2f 28 ea bc 91 16 36 3d
       0.061871637 0.12142613 -0.028583614 0.044455115

7.weight f4 [1, 32]
000000 51 3e 64 bd 87 72 95 be 54 81 07 be 84 3b 94 be
       -0.055723492 -0.2918894 -0.13232929 -0.28951657
000010 a0 98 fc 3d b6 f9 21 3d b6 90 13 3e 6f 17 60 bb
       0.123337984 0.039544784 0.14410672 -0.0034193655
000020 d1 42 6c 3e de b8 46 3e 29 57 83 be ed 07 68 be
       0.23072363 0.19406459 -0.25652435 -0.22659273
000030 ba f8 5c be 80 7d 05 3c 3f 85 af 3d e2 74 af 3d
       -0.21579257 0.008147597 0.085703366 0.085672155
000040 bb 43 5f bd d7 02 7b 3e ac b3 12 3e 04 7c 5d 3e
       -0.054507952 0.24512802 0.14326352 0.2162934
000050 39 b0 e6 bc f8 99 82 be 7e 57 30 3e bf 2e 8f be
       -0.028160201 -0.25508094 0.17220876 -0.27965352
000060 61 36 9c 3c f3 db df 3b 37 a7 33 3d ef f1 8e be
       0.019068899 0.00683164 0.04386064 -0.27918956
000070 0c 4b cd bd f3 de 55 be 54 79 25 3c 60 5e 2a 3d
       -0.1002408 -0.2088583 0.010099728 0.04159391
